# parameters
nc: 1  # number of classes
depth_multiple: 0.33  # model depth multiple
width_multiple: 0.50  # layer channel multiple

# anchors
anchors:
  - [10,13, 16,30, 33,23]   # P3/8
  - [30,61, 62,45, 59,119]  # P4/16
  - [116,90, 156,198, 373,326]  # P5/32

# YOLOv5 backbone
backbone:
  # [from, number, module, args]
  # Two Stream
  [
    ######### TransformerBlock One #############
    # stream one
    [-1, 1, Focus, [64, 3]],    # 0-P1/2
    [-1, 1, Conv, [128, 3, 2]], # 1-P2/4
    [-1, 3, C3, [128]],   # 2-P2/4
    [-1, 1, Conv, [256, 3, 2]],  # 3-P3/8
    [-1, 9, C3, [256]],   # 4-P3/8
    # stream two
    [-4, 1, Focus, [64, 3]],    # 5-P1/2
    [-1, 1, Conv, [128, 3, 2]], # 6-P2/4
    [-1, 3, C3, [128]],   # 7-P2/4
    [-1, 1, Conv, [256, 3, 2]],  # 8-P3/8
    [-1, 9, C3, [256]],   # 9-P3/8

    
    ######### TransformerBlock Two #############
   # transformer fusion
    [4, 1, Sly_FFT, [256]], # 10
#    [10, 1,  IDCT_2D, [256]],     # 11
    [9, 1, Sly_FFT, [256]], # 12   --- 11
#    [12, 1,  IDCT_2D, [256]],      # 13
    [[4,11], 1, Add, [1]], #14
    [[9,12], 1, Add, [1]], #15     ---13

   ######### TransformerBlock Three #############
   # stream one
    [14, 1, Conv, [512, 3, 2]],   # 13-P4/16 _16
    [-1, 9, C3, [512]],   # 14-P4/16 _17       ----15
   # stream two
    [15, 1, Conv, [512, 3, 2]],   # 15-P4/16 _18
    [-1, 9, C3, [512]],   # 16-P4/16  _19      -----17
   # transformer fusion
    [15, 1, Sly_FFT, [512]], # 20           -----18
#    [20, 1,  IDCT_2D, [512]],     # 21
    [17, 1, Sly_FFT, [512]], # 22             -----19
#    [22, 1,  IDCT_2D, [512]],      # 23
    [[15,19], 1, Add, [1]],    # 18-P3/8 stream one x+trans[0]  24  ---20
    [[17,18], 1, Add, [1]],    # 19-P3/8 stream two x+trans[1]  25    ---21

    ######### TransformerBlock Four #############
    # stream one
    [20, 1, Conv, [1024, 3, 2]],    # 20-P5/32  26    -----22
    [-1, 1, SPP, [1024, [5, 9, 13]]],   # 21-P5/32    27   -----23
    [-1, 3, C3, [1024, False]],   # 22-P5/32   28   -----24
    # stream two
    [21, 1, Conv, [1024, 3, 2]],    # 23-P5/32    29
    [-1, 1, SPP, [1024, [5, 9, 13]]],   # 24-P5/32     30
    [-1, 3, C3, [1024, False]],   # 25-P5/32       31    -----27
    # # transformer fusion
    [24, 1, Sly_FFT, [1024]], # 32    -----28
#    [32, 1,  IDCT_2D, [1024]],     # 33
    [27, 1, Sly_FFT, [1024]], # 34  -----29
#    [34, 1,  IDCT_2D, [1024]],      # 35
    [[24,29], 1, Add, [1]],    # 18-P3/8 stream one x+trans[0]  36   -----30
    [[27,28], 1, Add, [1]],    # 19-P3/8 stream two x+trans[1]  37   -----31

    ######### Add Block #############
    [[12,13], 1, Add, [1]],   # 29-P3/8 fusion backbone P3       38  -----32
    [[20,21], 1, Add, [1]],   # 30-P4/16 fusion backbone P4     39  -----33
    [[30,31], 1, Add, [1]],   # 31-P5/32 fusion backbone P5     40   -----34

  ]


# YOLOv5 head
head:
  [
    [-1, 1, Conv, [512, 1, 1]],   # 41 -----35
    [-1, 1, nn.Upsample, [None, 2, 'nearest']],   # 42
    [[-1,33], 1, Concat, [1]],    # 43 cat backbone P4
    [-1, 3, C3, [512, False]],    # 44

    [-1, 1, Conv, [256, 1, 1]],   # 45   -----39
    [-1, 1, nn.Upsample, [None, 2, 'nearest']],   # 46
    [[-1,32], 1, Concat, [1]],    # 47 cat backbone P3
    [-1, 3, C3, [256, False]],    # 48 (P3/8-small)  -----42

    [-1, 1, Conv, [256, 3, 2]],   # 49
    [[-1,39], 1, Concat, [1]],    # 50 cat head P4
    [-1, 3, C3, [512, False]],    # 51 (P4/16-medium)  -----45

    [-1, 1, Conv, [512, 3, 2]],    # 52
    [[-1,35], 1, Concat, [1]],     # 53 cat head P5
    [-1, 3, C3, [1024, False]],     # 54 (P5/32-large)  -----48

    [[42, 45, 48], 1, Detect, [nc, anchors]],   # Detect(P3, P4, P5)
  ]
